…
[2023-03-29 03:47:47.834654 INFO   ] augmentation:_parse_pipeline_from:94 - 数据增强配置：{'type': 'shift', 'aug_type': 'audio', 'params': {'min_shift_ms': -5, 'max_shift_ms': 5}, 'prob': 0.0}
[2023-03-29 03:47:47.835654 INFO   ] augmentation:_parse_pipeline_from:94 - 数据增强配置：{'type': 'volume', 'aug_type': 'audio', 'params': {'min_gain_dBFS': -15, 'max_gain_dBFS': 15}, 'prob': 0.0}
===============================================================================================
Layer (type:depth-idx)                        Output Shape              Param #
===============================================================================================
SpeakerIdetification                          [1, 50]                   --
├─EcapaTdnn: 1-1                              [1, 192]                  --
│    └─Conv1dReluBn: 2-1                      [1, 512, 98]              --
│    │    └─Conv1d: 3-1                       [1, 512, 98]              163,840
│    │    └─BatchNorm1d: 3-2                  [1, 512, 98]              1,024
│    └─Sequential: 2-2                        [1, 512, 98]              --
│    │    └─Conv1dReluBn: 3-3                 [1, 512, 98]              263,168
│    │    └─Res2Conv1dReluBn: 3-4             [1, 512, 98]              86,912
│    │    └─Conv1dReluBn: 3-5                 [1, 512, 98]              263,168
│    │    └─SE_Connect: 3-6                   [1, 512, 98]              262,912
│    └─Sequential: 2-3                        [1, 512, 98]              --
│    │    └─Conv1dReluBn: 3-7                 [1, 512, 98]              263,168
│    │    └─Res2Conv1dReluBn: 3-8             [1, 512, 98]              86,912
│    │    └─Conv1dReluBn: 3-9                 [1, 512, 98]              263,168
│    │    └─SE_Connect: 3-10                  [1, 512, 98]              262,912
│    └─Sequential: 2-4                        [1, 512, 98]              --
│    │    └─Conv1dReluBn: 3-11                [1, 512, 98]              263,168
│    │    └─Res2Conv1dReluBn: 3-12            [1, 512, 98]              86,912
│    │    └─Conv1dReluBn: 3-13                [1, 512, 98]              263,168
│    │    └─SE_Connect: 3-14                  [1, 512, 98]              262,912
│    └─Conv1d: 2-5                            [1, 1536, 98]             2,360,832
│    └─TemporalAveragePooling: 2-6            [1, 1536]                 --
│    └─BatchNorm1d: 2-7                       [1, 1536]                 3,072
│    └─Linear: 2-8                            [1, 192]                  295,104
│    └─BatchNorm1d: 2-9                       [1, 192]                  384
├─Dropout: 1-2                                [1, 192]                  --
├─Linear: 1-3                                 [1, 50]                   9,650
===============================================================================================
Total params: 5,462,386
Trainable params: 5,462,386
Non-trainable params: 0
Total mult-adds (M): 427.95
===============================================================================================
Input size (MB): 0.03
Forward/backward pass size (MB): 8.97
Params size (MB): 21.85
Estimated Total Size (MB): 30.84
…
