…
[2023-03-29 00:38:22.167577 INFO   ] augmentation:_parse_pipeline_from:94 - 数据增强配置：{'type': 'shift', 'aug_type': 'audio', 'params': {'min_shift_ms': -5, 'max_shift_ms': 5}, 'prob': 0.0}
[2023-03-29 00:38:22.167577 INFO   ] augmentation:_parse_pipeline_from:94 - 数据增强配置：{'type': 'volume', 'aug_type': 'audio', 'params': {'min_gain_dBFS': -15, 'max_gain_dBFS': 15}, 'prob': 0.0}
==========================================================================================
Layer (type:depth-idx)                   Output Shape              Param #
==========================================================================================
SpeakerIdetification                     [1, 50]                   --
├─TDNN: 1-1                              [1, 192]                  --
│    └─Conv1d: 2-1                       [1, 512, 94]              164,352
│    └─BatchNorm1d: 2-2                  [1, 512, 94]              1,024
│    └─Conv1d: 2-3                       [1, 512, 90]              786,944
│    └─BatchNorm1d: 2-4                  [1, 512, 90]              1,024
│    └─Conv1d: 2-5                       [1, 512, 84]              786,944
│    └─BatchNorm1d: 2-6                  [1, 512, 84]              1,024
│    └─Conv1d: 2-7                       [1, 512, 84]              262,656
│    └─BatchNorm1d: 2-8                  [1, 512, 84]              1,024
│    └─Conv1d: 2-9                       [1, 256, 84]              131,328
│    └─AttentiveStatsPool: 2-10          [1, 512]                  --
│    │    └─Conv1d: 3-1                  [1, 128, 84]              32,896
│    │    └─Conv1d: 3-2                  [1, 256, 84]              33,024
│    └─BatchNorm1d: 2-11                 [1, 512]                  1,024
│    └─Linear: 2-12                      [1, 192]                  98,496
│    └─BatchNorm1d: 2-13                 [1, 192]                  384
├─Dropout: 1-2                           [1, 192]                  --
├─Linear: 1-3                            [1, 50]                   9,650
==========================================================================================
Total params: 2,311,794
Trainable params: 2,311,794
Non-trainable params: 0
Total mult-adds (M): 191.12
==========================================================================================
Input size (MB): 0.03
Forward/backward pass size (MB): 3.32
Params size (MB): 9.25
Estimated Total Size (MB): 12.59
…
[2023-03-29 01:04:36.612011 INFO   ] augmentation:_parse_pipeline_from:94 - 数据增强配置：{'type': 'shift', 'aug_type': 'audio', 'params': {'min_shift_ms': -5, 'max_shift_ms': 5}, 'prob': 0.0}
[2023-03-29 01:04:36.612011 INFO   ] augmentation:_parse_pipeline_from:94 - 数据增强配置：{'type': 'volume', 'aug_type': 'audio', 'params': {'min_gain_dBFS': -15, 'max_gain_dBFS': 15}, 'prob': 0.0}
==========================================================================================
Layer (type:depth-idx)                   Output Shape              Param #
==========================================================================================
SpeakerIdetification                     [1, 50]                   --
├─TDNN: 1-1                              [1, 192]                  --
│    └─Conv1d: 2-1                       [1, 512, 94]              164,352
│    └─BatchNorm1d: 2-2                  [1, 512, 94]              1,024
│    └─Conv1d: 2-3                       [1, 512, 90]              786,944
│    └─BatchNorm1d: 2-4                  [1, 512, 90]              1,024
│    └─Conv1d: 2-5                       [1, 512, 84]              786,944
│    └─BatchNorm1d: 2-6                  [1, 512, 84]              1,024
│    └─Conv1d: 2-7                       [1, 512, 84]              262,656
│    └─BatchNorm1d: 2-8                  [1, 512, 84]              1,024
│    └─Conv1d: 2-9                       [1, 512, 84]              262,656
│    └─AttentiveStatsPool: 2-10          [1, 1024]                 --
│    │    └─Conv1d: 3-1                  [1, 128, 84]              65,664
│    │    └─Conv1d: 3-2                  [1, 512, 84]              66,048
│    └─BatchNorm1d: 2-11                 [1, 1024]                 2,048
│    └─Linear: 2-12                      [1, 192]                  196,800
│    └─BatchNorm1d: 2-13                 [1, 192]                  384
├─Dropout: 1-2                           [1, 192]                  --
├─Linear: 1-3                            [1, 50]                   9,650
==========================================================================================
Total params: 2,608,242
Trainable params: 2,608,242
Non-trainable params: 0
Total mult-adds (M): 207.78
==========================================================================================
Input size (MB): 0.03
Forward/backward pass size (MB): 3.67
Params size (MB): 10.43
Estimated Total Size (MB): 14.13
…
