…
[2023-04-02 12:49:32.478916 INFO   ] augmentation:_parse_pipeline_from:94 - 数据增强配置：{'type': 'shift', 'aug_type': 'audio', 'params': {'min_shift_ms': -5, 'max_shift_ms': 5}, 'prob': 0.0}
[2023-04-02 12:49:32.478916 INFO   ] augmentation:_parse_pipeline_from:94 - 数据增强配置：{'type': 'volume', 'aug_type': 'audio', 'params': {'min_gain_dBFS': -15, 'max_gain_dBFS': 15}, 'prob': 0.5}
===============================================================================================
Layer (type:depth-idx)                        Output Shape              Param #
===============================================================================================
SpeakerIdetification                          [1, 1873]                 --
├─EcapaTdnn: 1-1                              [1, 192]                  --
│    └─Conv1dReluBn: 2-1                      [1, 512, 98]              --
│    │    └─Conv1d: 3-1                       [1, 512, 98]              163,840
│    │    └─BatchNorm1d: 3-2                  [1, 512, 98]              1,024
│    └─Sequential: 2-2                        [1, 512, 98]              --
│    │    └─Conv1dReluBn: 3-3                 [1, 512, 98]              263,168
│    │    └─Res2Conv1dReluBn: 3-4             [1, 512, 98]              86,912
│    │    └─Conv1dReluBn: 3-5                 [1, 512, 98]              263,168
│    │    └─SE_Connect: 3-6                   [1, 512, 98]              262,912
│    └─Sequential: 2-3                        [1, 512, 98]              --
│    │    └─Conv1dReluBn: 3-7                 [1, 512, 98]              263,168
│    │    └─Res2Conv1dReluBn: 3-8             [1, 512, 98]              86,912
│    │    └─Conv1dReluBn: 3-9                 [1, 512, 98]              263,168
│    │    └─SE_Connect: 3-10                  [1, 512, 98]              262,912
│    └─Sequential: 2-4                        [1, 512, 98]              --
│    │    └─Conv1dReluBn: 3-11                [1, 512, 98]              263,168
│    │    └─Res2Conv1dReluBn: 3-12            [1, 512, 98]              86,912
│    │    └─Conv1dReluBn: 3-13                [1, 512, 98]              263,168
│    │    └─SE_Connect: 3-14                  [1, 512, 98]              262,912
│    └─Conv1d: 2-5                            [1, 1536, 98]             2,360,832
│    └─SelfAttentivePooling: 2-6              [1, 1536]                 --
│    │    └─Conv1d: 3-15                      [1, 128, 98]              196,736
│    │    └─Conv1d: 3-16                      [1, 1536, 98]             198,144
│    └─BatchNorm1d: 2-7                       [1, 1536]                 3,072
│    └─Linear: 2-8                            [1, 192]                  295,104
│    └─BatchNorm1d: 2-9                       [1, 192]                  384
├─Dropout: 1-2                                [1, 192]                  --
├─Linear: 1-3                                 [1, 1873]                 361,489
===============================================================================================
Total params: 6,209,105
Trainable params: 6,209,105
Non-trainable params: 0
Total mult-adds (M): 467.00
===============================================================================================
Input size (MB): 0.03
Forward/backward pass size (MB): 10.28
Params size (MB): 24.84
Estimated Total Size (MB): 35.15
…
[2023-04-03 11:18:11.422484 INFO   ] augmentation:_parse_pipeline_from:94 - 数据增强配置：{'type': 'shift', 'aug_type': 'audio', 'params': {'min_shift_ms': -5, 'max_shift_ms': 5}, 'prob': 0.0}
[2023-04-03 11:18:11.422484 INFO   ] augmentation:_parse_pipeline_from:94 - 数据增强配置：{'type': 'volume', 'aug_type': 'audio', 'params': {'min_gain_dBFS': -15, 'max_gain_dBFS': 15}, 'prob': 0.5}
===============================================================================================
Layer (type:depth-idx)                        Output Shape              Param #
===============================================================================================
SpeakerIdetification                          [1, 1873]                 359,616
├─EcapaTdnn: 1-1                              [1, 192]                  --
│    └─Conv1dReluBn: 2-1                      [1, 512, 98]              --
│    │    └─Conv1d: 3-1                       [1, 512, 98]              163,840
│    │    └─BatchNorm1d: 3-2                  [1, 512, 98]              1,024
│    └─Sequential: 2-2                        [1, 512, 98]              --
│    │    └─Conv1dReluBn: 3-3                 [1, 512, 98]              263,168
│    │    └─Res2Conv1dReluBn: 3-4             [1, 512, 98]              86,912
│    │    └─Conv1dReluBn: 3-5                 [1, 512, 98]              263,168
│    │    └─SE_Connect: 3-6                   [1, 512, 98]              262,912
│    └─Sequential: 2-3                        [1, 512, 98]              --
│    │    └─Conv1dReluBn: 3-7                 [1, 512, 98]              263,168
│    │    └─Res2Conv1dReluBn: 3-8             [1, 512, 98]              86,912
│    │    └─Conv1dReluBn: 3-9                 [1, 512, 98]              263,168
│    │    └─SE_Connect: 3-10                  [1, 512, 98]              262,912
│    └─Sequential: 2-4                        [1, 512, 98]              --
│    │    └─Conv1dReluBn: 3-11                [1, 512, 98]              263,168
│    │    └─Res2Conv1dReluBn: 3-12            [1, 512, 98]              86,912
│    │    └─Conv1dReluBn: 3-13                [1, 512, 98]              263,168
│    │    └─SE_Connect: 3-14                  [1, 512, 98]              262,912
│    └─Conv1d: 2-5                            [1, 1536, 98]             2,360,832
│    └─SelfAttentivePooling: 2-6              [1, 1536]                 --
│    │    └─Conv1d: 3-15                      [1, 128, 98]              196,736
│    │    └─Conv1d: 3-16                      [1, 1536, 98]             198,144
│    └─BatchNorm1d: 2-7                       [1, 1536]                 3,072
│    └─Linear: 2-8                            [1, 192]                  295,104
│    └─BatchNorm1d: 2-9                       [1, 192]                  384
├─Dropout: 1-2                                [1, 192]                  --
===============================================================================================
Total params: 6,207,232
Trainable params: 6,207,232
Non-trainable params: 0
Total mult-adds (M): 466.64
===============================================================================================
Input size (MB): 0.03
Forward/backward pass size (MB): 10.27
Params size (MB): 23.39
Estimated Total Size (MB): 33.69
…
