…
[2023-03-29 03:27:35.239418 INFO   ] augmentation:_parse_pipeline_from:94 - 数据增强配置：{'type': 'shift', 'aug_type': 'audio', 'params': {'min_shift_ms': -5, 'max_shift_ms': 5}, 'prob': 0.0}
[2023-03-29 03:27:35.240418 INFO   ] augmentation:_parse_pipeline_from:94 - 数据增强配置：{'type': 'volume', 'aug_type': 'audio', 'params': {'min_gain_dBFS': -15, 'max_gain_dBFS': 15}, 'prob': 0.0}
==========================================================================================
Layer (type:depth-idx)                   Output Shape              Param #
==========================================================================================
SpeakerIdetification                     [1, 50]                   --
├─TDNN: 1-1                              [1, 192]                  --
│    └─Conv1d: 2-1                       [1, 512, 94]              164,352
│    └─BatchNorm1d: 2-2                  [1, 512, 94]              1,024
│    └─Conv1d: 2-3                       [1, 512, 90]              786,944
│    └─BatchNorm1d: 2-4                  [1, 512, 90]              1,024
│    └─Conv1d: 2-5                       [1, 512, 84]              786,944
│    └─BatchNorm1d: 2-6                  [1, 512, 84]              1,024
│    └─Conv1d: 2-7                       [1, 512, 84]              262,656
│    └─BatchNorm1d: 2-8                  [1, 512, 84]              1,024
│    └─Conv1d: 2-9                       [1, 512, 84]              262,656
│    └─TemporalAveragePooling: 2-10      [1, 512]                  --
│    └─BatchNorm1d: 2-11                 [1, 512]                  1,024
│    └─Linear: 2-12                      [1, 192]                  98,496
│    └─BatchNorm1d: 2-13                 [1, 192]                  384
├─Dropout: 1-2                           [1, 192]                  --
├─Linear: 1-3                            [1, 50]                   9,650
==========================================================================================
Total params: 2,377,202
Trainable params: 2,377,202
Non-trainable params: 0
Total mult-adds (M): 196.62
==========================================================================================
Input size (MB): 0.03
Forward/backward pass size (MB): 3.24
Params size (MB): 9.51
Estimated Total Size (MB): 12.77
…
